models/autoencoder_vgg19/vgg19_2/vgg_normalised_conv2_1.pth (torch_old, 451726 bytes, 8 tensors)

0.weight f4 [3, 3, 1, 1]
00000000: 0000 0000 0000 0000 0000 7f43 0000 0000
00000010: 0000 7f43 0000 0000 0000 7f43 0000 0000
00000020: 0000 0000
0.0 0.0 255.0 0.0 255.0 0.0 255.0 0.0
0.0

0.bias f4 [3]
00000000: c5e0 cfc2 d98e e9c2 295c f7c2
-103.939 -116.779 -123.68

2.weight f4 [64, 3, 3, 3]
00000000: 5b42 8c3c bcc3 8b3c 2e7a 13bb 75df 3e3c
00000010: 9ba1 933b c15f 79bc 5dc9 6ebb aace 4abc
00000020: 4377 8abc 4bd1 be3c 76e0 ab3c 1e15 1ebb
00000030: 28da 7a3c 0cc5 aa3b 3164 99bc bd79 7bbb
00000040: c073 7fbc 7cf6 bebc f308 a23c c324 9b3c
00000050: fc1b 17bb e39f 5b3c 6935 a43b ba2e 8cbc
00000060: a111 79bb cb7c 66bc f904 abbc a524 8f3b
00000070: 6c07 c83b 2bbb 413b af0f c83b 4080 0a3c
00000080: f491 6f3b 99f3 963b c7a8 d33b 5fa0 453b
00000090: fee9 c83a 567b 1d3b 9e9a 9db9 10f8 293b
000000a0: 5d7e 843b e463 a7b9 424a e83a 0c8f 343b
000000b0: e61e 8ab9 850e 7cbb a8c9 6bbb 0b61 adbb
000000c0: d893 6ebb bdd4 3abb b090 c8bb 15b3 69bb
000000d0: a763 54bb 6101 acbb b50c 7c3a 773b 973a
000000e0: 077f 87bb 9872 d73b bc83 073c 9e6c 0bbb
000000f0: 8f95 3a3a 950d b93a 549c 90bb d0e6 b53b
00000100: 9e37 ad3b b2b2 9eba c68a 403c ef5e 543c
00000110: d7ec 983a ca17 b13b bddf b83b 46f6 bcba
00000120: d4f2 00bb 8698 29bb 4963 00bc f0a8 543b
00000130: 6a22 843b bf5d ccbb ce75 fbba 2cc5 09bb
00000140: 5842 02bc 24ff 543c 37e6 183c dc2f 2a3c
00000150: 8766 543b f330 91bc 9019 80bb 46ca 4a3a
00000160: cc73 91bc ddc1 d1bb affb 9f3c 63ac 5f3c
00000170: 6ff4 6d3c f304 aa3b a7fc 9dbc 7d81 a2bb
00000180: a7dc 9fb9 8537 b8bc e972 2abc 59ce 903c
00000190: 120e 513c a657 5d3c 124c a83b d614 94bc
000001a0: 9932 85bb 0eb8 c239 d551 a8bc dd5d 10bc
000001b0: a748 c0bb 2aca 283c 7823 283c 3212 41bc
000001c0: 2966 253c ae67 223c 6d2a 7bbc c06f ffbb
000001d0: 494b 9ebb b2b7 e1bb 4a1a 563c cad8 663c
000001e0: fda6 6abc 91d9 3e3c 9c61 533c 1067 a8bc
000001f0: 281f 20bc 6cc4 aabb e7d3 53bb ef44 7a3c
00000200: 291c 753c c7c4 17bc 1787 793c f88d 753c
00000210: 6c36 76bc 9a55 9ebb 0b40 daba edbe 0a3c
00000220: 62e4 163c 01b1 0a3c 0ece 143c 52f7 1c3c
00000230: 4bdd 0f3c 5578 023c 940e 153c f743 003c
00000240: 05d4 dcbb 8f3c f7bb dbad d5bb ba0b febb
00000250: f333 11bc 4c3d ffbb 54bf eabb 7fb0 f6bb
00000260: db54 e6bb d459 cbba d4bf 28bb b6ee a0ba
00000270: 5970 33bb ea12 84bb 24b4 2bbb 409b e1ba
00000280: 76bb 13bb f2ea b6ba 30e5 cc3b fd0e 07bc
00000290: 685f 57bc 0d6d 4b3c b0d3 78bb 24d5 45bc
000002a0: 45fb 563c f1b5 0c3c 55e0 c53a e419 043c
000002b0: e8c9 2abc 20f9 91bc 724f 833c 6bf1 87bb
000002c0: 46f0 7abc fd8a 9a3c 6a77 383c 5e48 ca3a
000002d0: 6417 853b 0046 60bc d8a9 9ebc 1615 323c
000002e0: c669 0abc ea1c 91bc c459 663c 42c6 e33b
000002f0: cae0 6fba d7ae 933a 7eb4 b43b 0ff4 ba3b
00000300: 9e7f 45bc 90d6 10bc c92f dc3a 0398 46bc
00000310: e92a 2fbc 0f69 06ba a5cb 6b3b 6994 393c
00000320: ad44 593c 5180 4fbc 8a25 c2bb d691 f03b
00000330: 8b9e 7fbc 36a5 34bc 7984 073b e33b ca3b
00000340: d74a 643c 16b9 6f3c 429e 06bc 1941 a4ba
00000350: 4d35 2b3c f8f8 3dbc a2a5 d8bb 1dcb a43b
00000360: adb6 283c 4f53 053c f8a6 2b3c 7808 1e3c
00000370: 18f9 fd3b 27d3 0f3c c5a7 133c 6f4e 2b3c
00000380: 4e19 053c a66d 9abc 2851 b5bc ce0e 96bc
00000390: 3b8b a4bc 0819 bdbc f4a9 a8bc 63e7 9cbc
000003a0: 8a12 98bc b1e1 a0bc 17ae 293c 891e 1a3c
000003b0: 9cc0 373c 9e98 3b3c f2ce 333c 2cb6 3b3c
000003c0: 68e0 213c 8126 523c cdec 243c 05da 383b
000003d0: 5b15 91ba bd60 633b c948 0a3c 9446 bb3b
000003e0: 3e46 1c3c 16d8 3c3c 627b 453c cd9a 4a3c
000003f0: 7c75 0dbc b3b6 62bc dfa1 ffbb e491 3abb
0.017121485 0.017061107 -0.0022503245 0.011649956 0.004505349 -0.015220583 -0.003643594 -0.012378374
-0.016902572 0.023293158 0.020981055 -0.0024121474 0.015310802 0.005211478 -0.018724533 -0.0038372122
-0.015591562 -0.023310892 0.019779658 0.018938428 -0.0023057451 0.013404819 0.00501125 -0.017112125
-0.0038004892 -0.014067839 -0.020876395 0.004368382 0.0061044004 0.0029561024 0.0061053853 0.008453429
0.00365555 0.004606676 0.006459329 0.0030155403 0.0015328524 0.0024029813 -0.00030060572 0.002593521
0.004043384 -0.00031927146 0.0017722326 0.0027551083 -0.00026344432 -0.0038460803 -0.003597835 -0.0052911094
-0.003640404 -0.002850815 -0.0061207637 -0.003565972 -0.003240803 -0.005249188 0.00096149306 0.0011538108
-0.004135016 0.00657494 0.008271154 -0.0021274458 0.0007117623 0.0014118428 -0.004413167 0.0055511966
0.005286171 -0.0012107699 0.011751836 0.012962087 0.0011667263 0.005404447 0.005641906 -0.0014416657
-0.0019675987 -0.0025878265 -0.007836171 0.0032449327 0.004032423 -0.0062367613 -0.0019184889 -0.0021022065
-0.007950388 0.013000283 0.009332231 0.010387387 0.0032409744 -0.017723536 -0.0039092973 0.00077358296
-0.017755412 -0.006401284 0.019529192 0.01365194 0.01452361 0.0051885783 -0.019285513 -0.004959284
-0.00030491242 -0.022487411 -0.010403373 0.01767652 0.012759702 0.013509667 0.0051360214 -0.018076342
-0.0040648696 0.00037139695 -0.020546833 -0.008811441 -0.005868036 0.010302106 0.010262363 -0.011784123
0.010095158 0.0099124145 -0.015329939 -0.007795304 -0.004830752 -0.0068883533 0.013067791 0.0140897725
-0.01432204 0.011648552 0.01290169 -0.020556957 -0.009773053 -0.0052114036 -0.0032322349 0.015275224
0.014960327 -0.009263224 0.015229962 0.014987461 -0.015027624 -0.004831982 -0.0016651166 0.008468372
0.009209724 0.008465053 0.00908233 0.00958045 0.008780788 0.00796326 0.009097714 0.007828704
-0.006739142 -0.007545061 -0.0065209693 -0.0077528628 -0.008862483 -0.0077892896 -0.0071639214 -0.007528364
-0.0070291585 -0.0015514442 -0.0025749104 -0.0012278173 -0.0027380197 -0.004030575 -0.0026199901 -0.0017212406
-0.0022542155 -0.0013955517 0.006252907 -0.00824332 -0.013145305 0.012416136 -0.0037967972 -0.0120747425
0.013121431 0.0085883 0.0015096763 0.008062813 -0.010424115 -0.017818987 0.016029093 -0.0041486523
-0.015316075 0.018865103 0.011258939 0.0015432944 0.0040616263 -0.013688564 -0.019368097 0.010869285
-0.00844807 -0.017713983 0.014059488 0.0069511244 -0.00091506226 0.0011267316 0.0055146804 0.0057053636
-0.012054352 -0.008840218 0.0016798909 -0.012121203 -0.010691383 -0.0005127349 0.0035979536 0.011326888
0.0132610025 -0.01266487 -0.005924885 0.0073416037 -0.015601764 -0.0110257175 0.0020678325 0.00617169
0.013933859 0.01463153 -0.008216443 -0.0012531608 0.01044972 -0.011595003 -0.006611542 0.005029096
0.01029746 0.008137538 0.01047682 0.009645574 0.0077506416 0.00877837 0.009012167 0.010455712
0.008123709 -0.018851113 -0.022133425 -0.018317606 -0.020085922 -0.023083225 -0.020588852 -0.019153303
-0.018563528 -0.019638868 0.010356448 0.009406694 0.011215355 0.011449961 0.010974633 0.011457007
0.009880163 0.012826563 0.010066223 0.0028206122 -0.0011068986 0.0034695112 0.008440205 0.0057152007
0.009538231 0.011526128 0.012053343 0.012366009 -0.0086339675 -0.013837504 -0.007801279 -0.0028468305

2.bias f4 [64]
00000000: d714 163d 8b65 423b 9084 f33a b0c6 173d
00000010: cfaf 863c dfd7 b73c 84b3 9dba 185d 943c
00000020: 7ae3 563d b57b 703b cdfa 063d 3252 b83c
00000030: 32e0 113d 48b3 363c 7c3c 923c 8d26 063d
00000040: dbb7 d33c 3b8d a83c 3f65 153d 7b8a 103c
00000050: 896c b53c ce25 513d 201e 2a3c 8996 0f3d
00000060: 0ef9 803b a6ac 793c 6461 9e3c b196 b43c
00000070: 78b1 083d 872a 843c ffd9 103d f296 a63c
00000080: 2c9e 803c 6e34 e93c 2184 183d ce8f 443d
00000090: 10c6 2c3c 838b df3c c163 b43c 4239 963b
000000a0: ba45 fb3b 9d7a 693d 0b54 c93c 545a 803d
000000b0: 3a9a b53c 957b 403d 5e46 e93c 12ec db3c
000000c0: 08d8 ac3c e986 b03c c73b b13b 37f4 193d
000000d0: 3ffb 7e3c 681f b53c 3879 dc3c 010a 003c
000000e0: 8d7c 113d 4af3 233d 22ae 053d 57da c73c
000000f0: 254b ed3c badb 713c 79b1 083d edf7 b23c
0.03664097 0.0029662575 0.0018578935 0.037054718 0.016441254 0.022441803 -0.0012031649 0.018110797
0.052463032 0.003669483 0.032954026 0.022500131 0.0356142 0.011151142 0.017851107 0.03275161
0.025844505 0.020575156 0.03647351 0.008822079 0.02214648 0.051061444 0.010383159 0.03505567
0.0039359396 0.0152389165 0.019333549 0.022044512 0.033372372 0.01613356 0.035364147 0.020335648
0.015700422 0.028467383 0.037235383 0.047988705 0.010545269 0.027288204 0.022020223 0.0045844624
0.007668224 0.0570017 0.024576208 0.06267229 0.022168268 0.046992857 0.028475937 0.026845966
0.021099105 0.021548705 0.0054087373 0.037586417 0.015562831 0.022109702 0.02691327 0.007814885
0.03551917 0.04002694 0.03263677 0.024396105 0.028966496 0.01476186 0.033372376 0.021846736

5.weight f4 [64, 64, 3, 3]
00000000: 7855 663d 8963 8c3d 6182 a6ba 8247 843d
00000010: ba65 32bc 3870 e9bc 5c07 f5bb 50ee 01bd
00000020: ba4f ae3c b68f 0a3c 415f 303a a4ea a3bb
00000030: 48fb e63a acae cebb c41e f4ba 324d b6bb
00000040: e4ac adbb 8c8b 383b ce61 7d3c f24a 853b
00000050: 2111 1abc 3d88 ed3a 9e06 5abc 1be2 e4bb
00000060: cb9a b0bb 7c03 9fbb 2d5c 363c 652e 8a3c
00000070: 8c88 833d 881f d1bb 019d 663d d216 a7bb
00000080: 345d 5fbd 2220 77ba cd61 37bd 8148 a1bc
00000090: c3c1 d23b 2228 82bc 7dcd f5bb e878 74bc
000000a0: 71fc 91bc 1b98 513b a96d 93bc e3e1 5d3c
000000b0: cea5 583c 3537 163a e846 383b 5e02 093a
000000c0: db77 173b 53bf 503b adf4 16bb 428a daba
000000d0: af53 f7ba c374 cfbb 60df 1cbb 1ef8 6e3b
000000e0: b7c3 fbb6 38dc 8f3b b105 4e3b 87b3 16bb
000000f0: 2da5 0b3b 19b7 ffbb 3306 c3bb 7c7e 63bc
00000100: e03a 8e3b 1f18 2f3c 93d5 f63b 89ca 323c
00000110: 1b02 88bc 4b75 5abb 498f 42bb e693 46bc
00000120: 7e6c c7ba 6d5c c2ba 916b bd39 bfb5 bfba
00000130: 3bcb 893a b658 12b9 573f 25ba 6491 013a
00000140: 439d 2ebb a96f 39bc e1b5 bbbb 121d 623b
00000150: ab38 1fbc a34d 1b3c 5959 1e3c 61f6 b03b
00000160: 9d8b c83b 6148 8bbb f924 5e3d 97e4 863c
00000170: 1687 d7bc f32b 7c3c 3215 36bd 71e0 c1bc
00000180: 0a40 08bd 491c 9dbc bb6c 353d b55e 333b
00000190: 1642 86bb 32d8 8dbb 9b6b 72bb e10a 1ebc
000001a0: 8c28 63bb f040 17bc dd5b cd3a 44ba b53b
000001b0: 8dce 943b 6d60 bc38 ac84 2d3a f544 74ba
000001c0: 80b8 2dbb ad4c 2d3b fd6a 04ba d4a5 3d3b
000001d0: df08 013c 3e06 843b ebda cfba bbee b6bb
000001e0: af1f b9ba d7bc a1bb e134 ca3a aed0 01bb
000001f0: ae76 87bb 4348 1f3a 2109 62bd 0e79 e7bb
00000200: b0ef 1d3d 8dba a0bc aa11 9d3d 33e0 fe3c
00000210: 61d5 0f3d 8de0 c33a a61b 23bd 461c 38bb
00000220: 7df9 793b f31a 313b cf52 843b 6edd 9d3b
00000230: c632 7ebb a40e b23a c1c8 8dbb 4204 bebb
00000240: c08e 34ba c44f 8039 8fb1 cc3a 922d a739
00000250: 338e 333b 2437 553a 2db4 2c3b ea9e 383b
00000260: ca13 333a 8995 463c f4ce 0f3c 4ef2 88bb
00000270: 8d47 003c fd6f fabb 6a20 f2bb 322a aabb
00000280: 94bc 07bc 4283 ab3b 353f 7cbb 49ad 633b
00000290: 02ca fe39 9354 fc3a 93e2 aa3b 8cdb 8dbb
000002a0: d4bc 333b 3945 49bb c286 d6bb cc5b b23a
000002b0: 015d a13b beca 3dba 8296 b03b c000 ab3b
000002c0: ae8c bebb dde9 c33a 7845 65bb 0db2 99bb
000002d0: dad8 fb3c da71 093d 9cb2 48bc 13fe ee3c
000002e0: 024b 72bc e843 08bd 3402 78bc 6f1b 03bd
000002f0: 31dc 38bb 525d da3c e556 f13c e45f bdbb
00000300: 6b8f f33c 7f60 1bbc 00b9 9ebc 2b63 0cbc
00000310: 940a a7bc fae8 c23b a3a9 123b f2a7 b13b
00000320: 7837 113b cd4d 8a3b 28ba 863b a550 e5ba
00000330: 0b48 fab9 5f89 3bbb bdab 42bb fa5b fdbc
00000340: ca06 cbbc 77a0 a23c 9ddc 07bd beb9 d83c
00000350: ff28 283d 24eb 083c 5851 153d a84c 97bb
00000360: bcdc 223b 1a53 063b 517e dbba 6c09 123b
00000370: e17a 05bb c227 0ebb d4c5 82ba 8c9a 76bb
00000380: c78c fab7 c5e7 763c 187d c6b9 caf5 bcbb
00000390: 0515 a93a 154b 02bb da53 08ba 4e0e 3bbb
000003a0: c248 363a a997 bb3a 5ecf c7bc c34d 7ebb
000003b0: 3ea2 523b 4736 38bc 4411 a43c a157 4d3c
000003c0: fa45 a33c 5a78 cabb d107 adbc 59ca fe3a
000003d0: fd3c 1bbc c0c1 6cbb 2f99 41bc 1743 34bc
000003e0: fedf be3b 1a57 dcbb dabe dc3b e36b 143c
000003f0: a692 32bd c1a6 33bc 55e2 353d 0498 e3bb
0.056233853 0.06854922 -0.0012703651 0.064589515 -0.010888511 -0.028495893 -0.007477684 -0.031721413
0.021278251 0.008457115 0.0006728061 -0.0050023366 0.0017622495 -0.0063074436 -0.0018624892 -0.0055634016
-0.005300151 0.0028159348 0.015465213 0.004067772 -0.009403498 0.0018122267 -0.013307242 -0.0069849617
-0.0053895465 -0.0048527103 0.011130375 0.016867826 0.064225286 -0.0063819326 0.056302074 -0.005099156
-0.054532245 -0.00094270904 -0.044771004 -0.019687893 0.0064317896 -0.015888277 -0.0075013028 -0.014921404
-0.017820569 0.003198153 -0.017996626 0.013542625 0.013223125 0.00057302724 0.0028118435 0.0005226488
0.002311221 0.003185232 -0.0023034022 -0.0016673284 -0.0018869544 -0.0063310578 -0.0023936853 0.0036463807
-7.503167e-06 0.004390266 0.0031436498 -0.002299519 0.002130817 -0.0078038094 -0.0059516667 -0.013885137
0.0043405145 0.010686903 0.0075327842 0.010912546 -0.016602566 -0.0033334072 -0.0029687455 -0.012120223
-0.0015214828 -0.001482857 0.00036129032 -0.0014626308 0.0010512838 -0.00013956692 -0.0006303689 0.00049426244
-0.0026644028 -0.011318126 -0.0057284688 0.003450219 -0.009718101 0.009478959 0.009664857 0.0054004644
0.006120159 -0.0042505716 0.05423448 0.016466422 -0.026309531 0.015391338 -0.044453807 -0.023666592
-0.033264197 -0.019178526 0.044293147 0.0027369682 -0.0040972335 -0.004328751 -0.0036990407 -0.009646148
-0.003466162 -0.009231791 0.0015667636 0.0055458862 0.0045412243 8.982499e-05 0.0006619196 -0.0009318137
-0.0026507676 0.0026443407 -0.0005051343 0.0028937953 0.00787565 0.0040290644 -0.0015858089 -0.005582658
-0.0014123822 -0.0049358415 0.0015427136 -0.001980822 -0.004134021 0.00060761365 -0.055184487 -0.0070639914
0.038558662 -0.019620204 0.07669385 0.031112766 0.035115603 0.0014944241 -0.03982129 -0.0028093024
0.0038143091 0.002702412 0.004038192 0.0048176562 -0.0038787588 0.0013584686 -0.0043269102 -0.0057988474
-0.00068877265 0.00024473493 0.0015616881 0.00031886675 0.002739799 0.0008133522 0.002635251 0.0028170892
0.0006831257 0.012120613 0.008777369 -0.0041792756 0.007829559 -0.0076427446 -0.007389118 -0.0051930184
-0.008284707 0.005234153 -0.0038489823 0.0034740737 0.00048597163 0.0019251279 0.005214998 -0.0043291505
0.0027425783 -0.0030711426 -0.006546826 0.001360768 0.004924417 -0.0007239989 0.0053890357 0.0052185953
-0.00581511 0.0014947016 -0.0034984034 -0.0046904148 0.030743051 0.033555843 -0.012249615 0.029173886
-0.014788391 -0.033267885 -0.015137244 -0.032008585 -0.0028207416 0.026655827 0.02946038 -0.0057792533
0.029731473 -0.009483456 -0.019375324 -0.008568565 -0.020390786 0.005948183 0.0022378943 0.005421632
0.0022158306 0.0042207004 0.004111547 -0.0017495347 -0.00047737392 -0.0028615815 -0.0029704415 -0.030927647
-0.02478351 0.019851906 -0.033169378 0.026455756 0.041054722 0.008356843 0.03645453 -0.0046172924
0.0024850806 0.002049631 -0.0016746019 0.0022283448 -0.002036743 -0.0021691178 -0.000997717 -0.0037628738
-2.9867877e-05 0.015069907 -0.00037858705 -0.005766605 0.0012899941 -0.0019881178 -0.0005200483 -0.0028542462
0.0006953591 0.0014312166 -0.024390873 -0.0038803674 0.003214016 -0.0112434095 0.020027764 0.012533099
0.019930828 -0.006178898 -0.021121891 0.0019438966 -0.00947499 -0.0036126226 -0.011816307 -0.011002324
0.005825042 -0.0067242505 0.0067366185 0.009058925 -0.043596886 -0.01096505 0.0444053 -0.006945612

5.bias f4 [64]
00000000: bc30 b6bb 7ecd 923b e429 143a ac4b 093a
00000010: 576a 2f3b d407 2d3a 2a3f d839 fc8f 82bb
00000020: 7591 88bc 8467 2c3b 1d2a c1bb a9bc 573a
00000030: 567c ae3b e900 d33a d2f5 0b3b 5ebd 0b3a
00000040: b967 f0bc a62e 5d3a ad9a 1d3a 2e96 953b
00000050: ea92 54bc 5555 893b 8b45 9bbc 5fda 6539
00000060: aafd 8d3a 22bc c03a 0a17 8b3b f7ff e23b
00000070: 6dcb 833b ea73 f6bb 10a0 3e3a ec27 833a
00000080: d245 b73a e19e d93b 582e 773b 98a0 753b
00000090: eaf9 d8bb faef 6c3b 843d 683b f6a6 e439
000000a0: 1103 e1ba fdb4 913b e844 3039 2605 183a
000000b0: 5606 aeba 5506 2b3a 5e20 823b e666 003b
000000c0: 046f 2ebc e2e0 803a 526b 19bc 87a3 553b
000000d0: 77af 9eba cf13 5a3b 7c6d 403a 1af2 0b3b
000000e0: 31a5 4c3b caa9 a23b 66d4 63bb 9087 ef39
000000f0: 83d9 013b ff6d 3b3a ff2b c339 8e3a 49bc
-0.005560009 0.004480063 0.0005651994 0.0005237411 0.0026766264 0.0006600593 0.0004124579 -0.0039844494
-0.016670922 0.0026306817 -0.005894913 0.00082297117 0.0053248806 0.0016098294 0.0021356237 0.0005330647
-0.029346334 0.0008437432 0.0006012123 0.004565022 -0.01297448 0.0041910806 -0.01895406 0.00021920491
0.0010833044 0.0014704505 0.00424469 0.006927486 0.004022053 -0.0075211423 0.0007271776 0.0010006404
0.00139826 0.0066412543 0.0037716832 0.0037479755 -0.006621589 0.003615378 0.0035437057 0.00043611944
-0.0017167052 0.0044466243 0.00016810338 0.0005799107 -0.0013277035 0.0006524076 0.0039711436 0.0019592582
-0.010646585 0.0009832645 -0.009363966 0.003259869 -0.0012106736 0.0033275967 0.0007340533 0.002135402
0.0031226391 0.004964088 -0.003476405 0.00045686634 0.0019813485 0.00071498746 0.00037226078 -0.012282027

9.weight f4 [128, 64, 3, 3]
00000000: a1e3 9bbb bd0b 80bc d874 78bc c9d8 9bbc
00000010: baad 08bd bd11 dfbc d726 a6bc 655e e2bc
00000020: 6b83 9bbc c833 46bc ef31 153c d4d2 e43c
00000030: e0c6 91bc e332 a5bb a62e 9f3c 49f9 48bc
00000040: 4b5d c93b 7c3f f73c dd56 56bd 8cf7 01bd
00000050: 3866 1cbd 85f6 0bbc 84a7 563c 7825 073c
00000060: e41a 59bc ea0f 563c b527 753c 40d6 5c3b
00000070: 9b3b 403b 01f0 183b 648a c8bb 87f3 09bc
00000080: 45c7 edbb a2a9 06bc 70d8 1abc a38d 01bc
00000090: bb76 f8bd 191f f0bd 6436 efbd 40b4 e8bd
000000a0: 49ca d5bd de38 dcbd f282 efbd 316b debd
000000b0: f899 ddbd be40 4fbc f93f c3bc 25da e7bc
000000c0: a856 6dbc a1eb 01bd 0354 dcbc 300c 5f3b
000000d0: a4c1 8ebc 8119 96bc 4806 cdbc e184 67bc
000000e0: c558 663b af26 28bd 5463 febc 88ed 9bbc
000000f0: fb60 3bbd 7d61 19bd a3e9 d8bc a6d2 42bc
00000100: 7642 45bc fb82 3dbc 0573 80bc f467 80bc
00000110: fd11 69bc 577f 51bc f28d 56bc b9aa 4cbc
00000120: b90e 913a 1820 453a 4cf7 ac3a 1c99 c9b9
00000130: b0c1 0236 300b 76b9 ca2d 9fb9 187d f3b8
00000140: f23d d0b9 2c7c fb3c e07b d13c 1162 d93c
00000150: 4514 8cbb 4ab5 ddbb 03cb 7dbb b146 debc
00000160: b9b1 d2bc f98a c5bc b665 16bd 415c 14bd
00000170: fbdd f4bc 95cf 12bd f488 14bd 45e1 0cbd
00000180: 8f7c f8bc 58ad 0abd 0098 f8bc d071 133c
00000190: 6e80 28bc c208 b6bc 3b1d 21bc c323 bbbc
000001a0: 3a03 04bd ddf2 cbbc 0914 1dbd 7b4c 33bd
000001b0: f247 4d3d 103a 713b 566e eebc 40f8 a23c
000001c0: 2ea8 e2bc a2a4 3abd 825e 1f3c 2c19 01bd
000001d0: a872 74bd 6a98 edbc 955e 6ebd acf7 9cbd
000001e0: a075 67bc 20fe 27bd bbda 74bd ef2e 823c
000001f0: 7848 aebc 49de 2bbd 0de7 8c3c 7b48 583c
00000200: 6a51 533c 634f 4c3b c068 e4ba 7709 f439
00000210: 4b53 bbbb f378 11bc dbfc 05bc 300f 2fbd
00000220: acb4 febc dc45 04bd 2d0a 00bd 3d31 96bc
00000230: b447 95bc 60f1 1dbd 54e2 c0bc 92f8 a1bc
00000240: 58fb ee3b 1eb9 af3b c0ed e53b 1b20 4e3a
00000250: 610a 14ba c086 2e3a e2f3 633b 9e81 153b
00000260: f560 513b 63ba 36bd 15b0 42bd b453 5abd
00000270: 5ffd fdbc 5a7f 19bd 82ec 25bd fac1 2dbc
00000280: a452 bbbc af37 c3bc 496c 1f3d 842f 153d
00000290: 85e4 f83c 269f da3c 5be6 e03c 9d21 b73c
000002a0: dc49 783c a865 803c 7e4f 733c 759d 9dbc
000002b0: 868d 9ebc 7954 88bc 74f8 a1bc f547 a8bc
000002c0: e301 9cbc 850f 8cbc f4e0 96bc 160e 9dbc
000002d0: ba66 58ba d0c1 51bb fe62 f8ba e401 c8bc
000002e0: a1e5 02bd a11d d1bc 931e 95bc 6fbf bbbc
000002f0: 3a58 afbc b72f fe3b c0cf 28ba 9443 45ba
00000300: a320 35bb ccff 42bc b43b 14bc 05c5 20bc
00000310: 5b29 7ebc 60f0 66bc e140 a33b c9fa 493b
00000320: 71f0 673b 8a41 743a 78fa c0b6 da12 d6b9
00000330: e288 4f3b 6bf4 cd3a 1cd4 ba3a 69fd 923d
00000340: f2e1 b53d 6284 c03d b302 783d dae4 a73d
00000350: cdb5 b53d 78be 8e3c 0297 373d e0f0 623d
00000360: bacb 19bd ca89 08bd 9a41 06bd b47a 02bd
00000370: 9ec0 dabc 5e1b cabc f96d d1bc 5955 a4bc
00000380: ac78 91bc 4f11 26bd f11f 25bd 43fe 25bd
00000390: a452 1fbd c5d7 1fbd a739 25bd cef7 1cbd
000003a0: cd2d 20bd f8be 25bd d1c0 8a3b ea04 0d3c
000003b0: b00e d43c c9a0 29bd 9ad7 21bd 0b5f cabc
000003c0: cb9a 5abd e2c2 3dbd 43ba 2abd 64ab 88bc
000003d0: 08cb 89bc b2f5 86bc 4d5d 97bc 0f0e 97bc
000003e0: 35e0 92bc 26a2 8dbc 127e 8abc 8f67 86bc
000003f0: f82b a9bd ef2a 5abd 8a2d 83bc 0cdf a1bd
-0.00475736 -0.015630597 -0.0151645765 -0.01902427 -0.033368804 -0.027230138 -0.020282192 -0.027632901
-0.018983563 -0.012097307 0.009106143 0.027932562 -0.017795026 -0.0050414666 0.019431423 -0.012266465
0.0061451546 0.030181639 -0.052328933 -0.03173022 -0.03818342 -0.008542662 0.013101462 0.008248679
-0.01325104 0.013065318 0.01496308 0.003369704 0.0029332403 0.0023336413 -0.006120013 -0.008419878
-0.007256421 -0.008219155 -0.009451017 -0.007907304 -0.12132021 -0.117246814 -0.11680296 -0.11362505
-0.104389735 -0.10753034 -0.11694898 -0.10860289 -0.10820383 -0.012649713 -0.023834215 -0.028302262
-0.0144859925 -0.031718854 -0.026895529 0.0034034364 -0.01742632 -0.018322708 -0.02502741 -0.014130802
0.0035148126 -0.041052517 -0.031053223 -0.019034162 -0.045746785 -0.037446488 -0.026478594 -0.011891043
-0.012039771 -0.011566873 -0.015679846 -0.015674569 -0.01422548 -0.012786708 -0.013095366 -0.012491875
0.001106701 0.0007519736 0.0013196259 -0.00038451783 1.948425e-06 -0.00023464556 -0.0003036096 -0.000116104435
-0.00039719004 0.030698858 0.025571764 0.02653602 -0.0042748773 -0.006765996 -0.003872574 -0.027133318
-0.02571951 -0.024114119 -0.036718093 -0.036220793 -0.029891005 -0.035842497 -0.03626342 -0.03439452
-0.030332832 -0.03385672 -0.030345917 0.008999303 -0.010284526 -0.022220973 -0.009833629 -0.022844201
-0.03222964 -0.02489608 -0.038349185 -0.04377411 0.05011744 0.003680829 -0.029105347 0.019893765
-0.027668085 -0.045567162 0.009727122 -0.031518146 -0.059679657 -0.02900334 -0.05819567 -0.07664427
-0.014127165 -0.041013837 -0.05977891 0.01589152 -0.02127479 -0.041960035 0.017200017 0.013200874
0.012897829 0.0031175248 -0.0017426237 0.00046546358 -0.0057167164 -0.008878934 -0.008177961 -0.042739093
-0.03109201 -0.032293186 -0.031259704 -0.018334026 -0.018222667 -0.03856027 -0.023545422 -0.019771848
0.007293146 0.005362644 0.0070168674 0.00078630605 -0.00056472985 0.00066576526 0.0034782817 0.0022812854
0.003194866 -0.044611346 -0.047531206 -0.05330248 -0.031004606 -0.037474968 -0.040508755 -0.01060533
-0.022866555 -0.023830263 0.03892163 0.036422268 0.030382404 0.026687216 0.027453592 0.022354895
0.015154328 0.015673473 0.014850495 -0.01924012 -0.019354593 -0.016641842 -0.019771792 -0.020542124
-0.019043868 -0.017097244 -0.018417813 -0.019171756 -0.00082550535 -0.003200639 -0.00189504 -0.024414964
-0.031957272 -0.025526823 -0.018203055 -0.022918431 -0.021404374 0.007757153 -0.00064396486 -0.00075250235
-0.0027637861 -0.011901807 -0.009047437 -0.009812598 -0.01551279 -0.014095396 0.0049820994 0.0030819646
0.0035391117 0.00093176274 -5.7512043e-06 -0.00040831306 0.0031667282 0.0015713101 0.0014253887 0.071772404
0.08880986 0.0940025 0.06054945 0.08197947 0.08872566 0.017424807 0.044821747 0.055405498
-0.037547804 -0.03333453 -0.032777406 -0.0318553 -0.026703175 -0.024671253 -0.025565134 -0.020060228
-0.017757736 -0.04054385 -0.040313665 -0.040525686 -0.03889717 -0.039024133 -0.040338185 -0.038322262
-0.03910618 -0.040465325 0.0042344113 0.008607129 0.02588591 -0.041413102 -0.039512254 -0.024703523
-0.05337028 -0.046328433 -0.04168154 -0.016683288 -0.016820446 -0.016474579 -0.018477106 -0.01843932
-0.017929176 -0.017289232 -0.016905818 -0.016406802 -0.082603395 -0.0532636 -0.016012926 -0.07903871

9.bias f4 [128]
00000000: 2e30 d2ba d537 7e3a d180 93b9 cc9e 0f3a
00000010: 3865 6b3a 3fae c83a 6b0b 9a3a b9d3 db3a
00000020: 8860 de3a 2162 973a 150d 1639 5bef c23a
00000030: 3991 5538 edec 3c38 634b d93a a8e0 db3a
00000040: d803 d93a 7cdd fd3a 8428 d83a 9a73 d43a
00000050: 58da 8f3a 5cbb d53a 29ef c7b8 aa47 af39
00000060: dda1 fd3a 83c2 b23a 6a4d 2c3a 4532 9239
00000070: 747b a939 873f 0d3a 2e89 053b dac4 c2ba
00000080: fdf3 253a 443e c63a e2d7 47ba 9ccf 9aba
00000090: c1cf 883a 2d86 db3a 5524 3539 e8d2 7bb9
000000a0: 12fe 4db9 e8fe cd3a 2631 3c3a 92ce 6739
000000b0: 9c29 dd3a f049 d43a 34b9 d23a 8365 863a
000000c0: 9f1f 083b 47df 6eba 1df7 16ba d2be 4e3a
000000d0: 1edb a13a 8882 aeba 9bf8 273a 774b c13a
000000e0: ccc1 bd39 c324 b83a 46bc 6a3a b43c c238
000000f0: b66f fcba 9273 cd3a 4f38 623a ddbc 263a
00000100: eb66 b53a 04bd d939 fbe9 c43a a797 5cba
00000110: 673c 103a 8b47 91bb 0d4b 683a 3bfa 293a
00000120: 8cd2 2a3a acb9 ab3a 6cc1 24ba 275b 06bb
00000130: 7afb 9d3a 5886 8f3a 283d 8c3a 4fca dc3a
00000140: f674 513a 7fd0 a73a 0087 8f3a 5cd4 123b
00000150: 8376 1bba d36d aa3a 055f 8b3a e382 ad3a
00000160: 62cb ab3a 21eb c9b9 1ce5 a33a d8ba fdba
00000170: 3f42 9c3a edb5 a53a 89c3 0a3b 593c 2f3a
00000180: c2ec 993a 55a0 373a f809 9c39 f096 e03a
00000190: 6323 c639 aef5 ec39 e588 003a e522 f93a
000001a0: 7394 bfb8 1d7b fd38 7a6c 0939 845d 843a
000001b0: cfb0 93b9 5aa9 c83a 8f5a 783a ba47 fd3a
000001c0: 50c2 32b7 4583 2cb9 3133 ee39 f0f0 b239
000001d0: 3f06 e23a 3c75 88b9 9773 173a dfdb 5c3b
000001e0: fd3a 86ba 1ffa 48b9 af14 d73a 62a0 83bc
000001f0: 3ef0 9e3a 175c ca3a fcc7 1a3a 8291 863a
-0.0016036087 0.00096976507 -0.00028134 0.00054786797 0.00089796213 0.0015310718 0.001175267 0.0016771472
0.0016966024 0.001154963 0.00014309988 0.0014872359 5.0918406e-05 4.5043347e-05 0.0016578253 0.0016775327
0.0016556932 0.0019368376 0.0016491567 0.0016208768 0.0010975106 0.0016306448 -9.5336065e-05 0.00033431995
0.0019350607 0.0013638291 0.0006572815 0.00027884744 0.00032326172 0.00053881895 0.0020375955 -0.0014859692
0.00063306076 0.0015124758 -0.00076234166 -0.001181114 0.0010437892 0.0016748362 0.0001727504 -0.00024015794
-0.00019644972 0.0015716227 0.00071789545 0.0002210683 0.0016873362 0.0016196351 0.0016076923 0.0010253642
0.00207708 -0.00091122504 -0.00057588686 0.0007886711 0.0012348627 -0.0013314048 0.00064075895 0.0014747222
0.0003619328 0.0014049042 0.00089544465 9.261948e-05 -0.0019259367 0.0015674701 0.00086296065 0.000636054
0.0013839876 0.00041530293 0.0015023345 -0.0008414932 0.0005502165 -0.0044335774 0.0008861281 0.00064841256
0.0006516359 0.0013101599 -0.00062849256 -0.0020501108 0.0012053095 0.0010950072 0.0010699378 0.0016844961
0.0007990146 0.0012803226 0.0010950267 0.0022404408 -0.00059304404 0.0013002701 0.0010633176 0.001323786
0.0013106877 -0.00038512892 0.0012504193 -0.0019358052 0.0011921598 0.0012642719 0.0021173677 0.0006684713
0.0011743533 0.00070047873 0.00029762066 0.0017134827 0.00037791868 0.00045196473 0.00049032114 0.0019007592
-9.1352405e-05 0.00012086912 0.00013105749 0.0010098671 -0.00028169758 0.001530926 0.00094739435 0.0019323744
-1.0654869e-05 -0.000164521 0.00045433038 0.00034130318 0.0017244293 -0.00026027288 0.0005777417 0.003370039
-0.0010240969 -0.00019166664 0.0016409362 -0.016067687 0.0012126041 0.0015438822 0.0005904434 0.0010266753
