models/autoencoder_vgg19/vgg19_1/vgg_normalised_conv1_1.pth (torch_old, 8031 bytes, 4 tensors)

0.weight f4 [3, 3, 1, 1]
00000000: 0000 0000 0000 0000 0000 7f43 0000 0000
00000010: 0000 7f43 0000 0000 0000 7f43 0000 0000
00000020: 0000 0000
0.0 0.0 255.0 0.0 255.0 0.0 255.0 0.0
0.0

0.bias f4 [3]
00000000: c5e0 cfc2 d98e e9c2 295c f7c2
-103.939 -116.779 -123.68

2.weight f4 [64, 3, 3, 3]
00000000: 5b42 8c3c bcc3 8b3c 2e7a 13bb 75df 3e3c
00000010: 9ba1 933b c15f 79bc 5dc9 6ebb aace 4abc
00000020: 4377 8abc 4bd1 be3c 76e0 ab3c 1e15 1ebb
00000030: 28da 7a3c 0cc5 aa3b 3164 99bc bd79 7bbb
00000040: c073 7fbc 7cf6 bebc f308 a23c c324 9b3c
00000050: fc1b 17bb e39f 5b3c 6935 a43b ba2e 8cbc
00000060: a111 79bb cb7c 66bc f904 abbc a524 8f3b
00000070: 6c07 c83b 2bbb 413b af0f c83b 4080 0a3c
00000080: f491 6f3b 99f3 963b c7a8 d33b 5fa0 453b
00000090: fee9 c83a 567b 1d3b 9e9a 9db9 10f8 293b
000000a0: 5d7e 843b e463 a7b9 424a e83a 0c8f 343b
000000b0: e61e 8ab9 850e 7cbb a8c9 6bbb 0b61 adbb
000000c0: d893 6ebb bdd4 3abb b090 c8bb 15b3 69bb
000000d0: a763 54bb 6101 acbb b50c 7c3a 773b 973a
000000e0: 077f 87bb 9872 d73b bc83 073c 9e6c 0bbb
000000f0: 8f95 3a3a 950d b93a 549c 90bb d0e6 b53b
00000100: 9e37 ad3b b2b2 9eba c68a 403c ef5e 543c
00000110: d7ec 983a ca17 b13b bddf b83b 46f6 bcba
00000120: d4f2 00bb 8698 29bb 4963 00bc f0a8 543b
00000130: 6a22 843b bf5d ccbb ce75 fbba 2cc5 09bb
00000140: 5842 02bc 24ff 543c 37e6 183c dc2f 2a3c
00000150: 8766 543b f330 91bc 9019 80bb 46ca 4a3a
00000160: cc73 91bc ddc1 d1bb affb 9f3c 63ac 5f3c
00000170: 6ff4 6d3c f304 aa3b a7fc 9dbc 7d81 a2bb
00000180: a7dc 9fb9 8537 b8bc e972 2abc 59ce 903c
00000190: 120e 513c a657 5d3c 124c a83b d614 94bc
000001a0: 9932 85bb 0eb8 c239 d551 a8bc dd5d 10bc
000001b0: a748 c0bb 2aca 283c 7823 283c 3212 41bc
000001c0: 2966 253c ae67 223c 6d2a 7bbc c06f ffbb
000001d0: 494b 9ebb b2b7 e1bb 4a1a 563c cad8 663c
000001e0: fda6 6abc 91d9 3e3c 9c61 533c 1067 a8bc
000001f0: 281f 20bc 6cc4 aabb e7d3 53bb ef44 7a3c
00000200: 291c 753c c7c4 17bc 1787 793c f88d 753c
00000210: 6c36 76bc 9a55 9ebb 0b40 daba edbe 0a3c
00000220: 62e4 163c 01b1 0a3c 0ece 143c 52f7 1c3c
00000230: 4bdd 0f3c 5578 023c 940e 153c f743 003c
00000240: 05d4 dcbb 8f3c f7bb dbad d5bb ba0b febb
00000250: f333 11bc 4c3d ffbb 54bf eabb 7fb0 f6bb
00000260: db54 e6bb d459 cbba d4bf 28bb b6ee a0ba
00000270: 5970 33bb ea12 84bb 24b4 2bbb 409b e1ba
00000280: 76bb 13bb f2ea b6ba 30e5 cc3b fd0e 07bc
00000290: 685f 57bc 0d6d 4b3c b0d3 78bb 24d5 45bc
000002a0: 45fb 563c f1b5 0c3c 55e0 c53a e419 043c
000002b0: e8c9 2abc 20f9 91bc 724f 833c 6bf1 87bb
000002c0: 46f0 7abc fd8a 9a3c 6a77 383c 5e48 ca3a
000002d0: 6417 853b 0046 60bc d8a9 9ebc 1615 323c
000002e0: c669 0abc ea1c 91bc c459 663c 42c6 e33b
000002f0: cae0 6fba d7ae 933a 7eb4 b43b 0ff4 ba3b
00000300: 9e7f 45bc 90d6 10bc c92f dc3a 0398 46bc
00000310: e92a 2fbc 0f69 06ba a5cb 6b3b 6994 393c
00000320: ad44 593c 5180 4fbc 8a25 c2bb d691 f03b
00000330: 8b9e 7fbc 36a5 34bc 7984 073b e33b ca3b
00000340: d74a 643c 16b9 6f3c 429e 06bc 1941 a4ba
00000350: 4d35 2b3c f8f8 3dbc a2a5 d8bb 1dcb a43b
00000360: adb6 283c 4f53 053c f8a6 2b3c 7808 1e3c
00000370: 18f9 fd3b 27d3 0f3c c5a7 133c 6f4e 2b3c
00000380: 4e19 053c a66d 9abc 2851 b5bc ce0e 96bc
00000390: 3b8b a4bc 0819 bdbc f4a9 a8bc 63e7 9cbc
000003a0: 8a12 98bc b1e1 a0bc 17ae 293c 891e 1a3c
000003b0: 9cc0 373c 9e98 3b3c f2ce 333c 2cb6 3b3c
000003c0: 68e0 213c 8126 523c cdec 243c 05da 383b
000003d0: 5b15 91ba bd60 633b c948 0a3c 9446 bb3b
000003e0: 3e46 1c3c 16d8 3c3c 627b 453c cd9a 4a3c
000003f0: 7c75 0dbc b3b6 62bc dfa1 ffbb e491 3abb
0.017121485 0.017061107 -0.0022503245 0.011649956 0.004505349 -0.015220583 -0.003643594 -0.012378374
-0.016902572 0.023293158 0.020981055 -0.0024121474 0.015310802 0.005211478 -0.018724533 -0.0038372122
-0.015591562 -0.023310892 0.019779658 0.018938428 -0.0023057451 0.013404819 0.00501125 -0.017112125
-0.0038004892 -0.014067839 -0.020876395 0.004368382 0.0061044004 0.0029561024 0.0061053853 0.008453429
0.00365555 0.004606676 0.006459329 0.0030155403 0.0015328524 0.0024029813 -0.00030060572 0.002593521
0.004043384 -0.00031927146 0.0017722326 0.0027551083 -0.00026344432 -0.0038460803 -0.003597835 -0.0052911094
-0.003640404 -0.002850815 -0.0061207637 -0.003565972 -0.003240803 -0.005249188 0.00096149306 0.0011538108
-0.004135016 0.00657494 0.008271154 -0.0021274458 0.0007117623 0.0014118428 -0.004413167 0.0055511966
0.005286171 -0.0012107699 0.011751836 0.012962087 0.0011667263 0.005404447 0.005641906 -0.0014416657
-0.0019675987 -0.0025878265 -0.007836171 0.0032449327 0.004032423 -0.0062367613 -0.0019184889 -0.0021022065
-0.007950388 0.013000283 0.009332231 0.010387387 0.0032409744 -0.017723536 -0.0039092973 0.00077358296
-0.017755412 -0.006401284 0.019529192 0.01365194 0.01452361 0.0051885783 -0.019285513 -0.004959284
-0.00030491242 -0.022487411 -0.010403373 0.01767652 0.012759702 0.013509667 0.0051360214 -0.018076342
-0.0040648696 0.00037139695 -0.020546833 -0.008811441 -0.005868036 0.010302106 0.010262363 -0.011784123
0.010095158 0.0099124145 -0.015329939 -0.007795304 -0.004830752 -0.0068883533 0.013067791 0.0140897725
-0.01432204 0.011648552 0.01290169 -0.020556957 -0.009773053 -0.0052114036 -0.0032322349 0.015275224
0.014960327 -0.009263224 0.015229962 0.014987461 -0.015027624 -0.004831982 -0.0016651166 0.008468372
0.009209724 0.008465053 0.00908233 0.00958045 0.008780788 0.00796326 0.009097714 0.007828704
-0.006739142 -0.007545061 -0.0065209693 -0.0077528628 -0.008862483 -0.0077892896 -0.0071639214 -0.007528364
-0.0070291585 -0.0015514442 -0.0025749104 -0.0012278173 -0.0027380197 -0.004030575 -0.0026199901 -0.0017212406
-0.0022542155 -0.0013955517 0.006252907 -0.00824332 -0.013145305 0.012416136 -0.0037967972 -0.0120747425
0.013121431 0.0085883 0.0015096763 0.008062813 -0.010424115 -0.017818987 0.016029093 -0.0041486523
-0.015316075 0.018865103 0.011258939 0.0015432944 0.0040616263 -0.013688564 -0.019368097 0.010869285
-0.00844807 -0.017713983 0.014059488 0.0069511244 -0.00091506226 0.0011267316 0.0055146804 0.0057053636
-0.012054352 -0.008840218 0.0016798909 -0.012121203 -0.010691383 -0.0005127349 0.0035979536 0.011326888
0.0132610025 -0.01266487 -0.005924885 0.0073416037 -0.015601764 -0.0110257175 0.0020678325 0.00617169
0.013933859 0.01463153 -0.008216443 -0.0012531608 0.01044972 -0.011595003 -0.006611542 0.005029096
0.01029746 0.008137538 0.01047682 0.009645574 0.0077506416 0.00877837 0.009012167 0.010455712
0.008123709 -0.018851113 -0.022133425 -0.018317606 -0.020085922 -0.023083225 -0.020588852 -0.019153303
-0.018563528 -0.019638868 0.010356448 0.009406694 0.011215355 0.011449961 0.010974633 0.011457007
0.009880163 0.012826563 0.010066223 0.0028206122 -0.0011068986 0.0034695112 0.008440205 0.0057152007
0.009538231 0.011526128 0.012053343 0.012366009 -0.0086339675 -0.013837504 -0.007801279 -0.0028468305

2.bias f4 [64]
00000000: d714 163d 8b65 423b 9084 f33a b0c6 173d
00000010: cfaf 863c dfd7 b73c 84b3 9dba 185d 943c
00000020: 7ae3 563d b57b 703b cdfa 063d 3252 b83c
00000030: 32e0 113d 48b3 363c 7c3c 923c 8d26 063d
00000040: dbb7 d33c 3b8d a83c 3f65 153d 7b8a 103c
00000050: 896c b53c ce25 513d 201e 2a3c 8996 0f3d
00000060: 0ef9 803b a6ac 793c 6461 9e3c b196 b43c
00000070: 78b1 083d 872a 843c ffd9 103d f296 a63c
00000080: 2c9e 803c 6e34 e93c 2184 183d ce8f 443d
00000090: 10c6 2c3c 838b df3c c163 b43c 4239 963b
000000a0: ba45 fb3b 9d7a 693d 0b54 c93c 545a 803d
000000b0: 3a9a b53c 957b 403d 5e46 e93c 12ec db3c
000000c0: 08d8 ac3c e986 b03c c73b b13b 37f4 193d
000000d0: 3ffb 7e3c 681f b53c 3879 dc3c 010a 003c
000000e0: 8d7c 113d 4af3 233d 22ae 053d 57da c73c
000000f0: 254b ed3c badb 713c 79b1 083d edf7 b23c
0.03664097 0.0029662575 0.0018578935 0.037054718 0.016441254 0.022441803 -0.0012031649 0.018110797
0.052463032 0.003669483 0.032954026 0.022500131 0.0356142 0.011151142 0.017851107 0.03275161
0.025844505 0.020575156 0.03647351 0.008822079 0.02214648 0.051061444 0.010383159 0.03505567
0.0039359396 0.0152389165 0.019333549 0.022044512 0.033372372 0.01613356 0.035364147 0.020335648
0.015700422 0.028467383 0.037235383 0.047988705 0.010545269 0.027288204 0.022020223 0.0045844624
0.007668224 0.0570017 0.024576208 0.06267229 0.022168268 0.046992857 0.028475937 0.026845966
0.021099105 0.021548705 0.0054087373 0.037586417 0.015562831 0.022109702 0.02691327 0.007814885
0.03551917 0.04002694 0.03263677 0.024396105 0.028966496 0.01476186 0.033372376 0.021846736
